FFNN_POS_Tagger.pt (torch, 138324 bytes, 5 tensors)

weight f4 [515, 20]
000000 8e 5b 03 3e e3 f5 84 bf 4b fa c1 3f 61 84 8d 3e
       0.12827894 -1.0387539 1.5154508 0.2764006
000010 e9 12 07 c0 53 50 d5 bf e2 75 ad bf cf a0 8e be
       -2.1105292 -1.6665138 -1.35516 -0.27857062
000020 f7 b0 9b 3f e3 9a 16 c0 b9 72 58 bf c4 c4 31 3c
       1.216338 -2.3532035 -0.8455005 0.010850135
000030 bc 7a 1a bf 49 17 a2 bf 2d e5 1d be 0b 7d b2 3e
       -0.6034353 -1.2663356 -0.15419455 0.34861025
000040 29 16 b3 be a8 31 52 bf eb 7c d4 be e3 ed 7a 3f
       -0.34977844 -0.8210702 -0.41501555 0.98019236
000050 d3 10 db 3f c2 7c 71 bf f5 15 0e 3e a6 f3 64 be
       1.7114509 -0.9433099 0.13875563 -0.2235857
000060 45 19 45 3f 2a 2f ee bf c9 f5 8e bf 79 67 35 bf
       0.76991683 -1.8608143 -1.1168758 -0.7086101
000070 63 d3 93 3f 15 11 14 c0 4c 1f ea 3e 94 52 40 be
       1.1548885 -2.3135426 0.45727003 -0.18781501
000080 c7 55 c6 bd 46 98 c6 bf fe 64 03 40 39 a7 57 3f
       -0.096843295 -1.551522 2.053039 0.84239537
000090 31 ee ba bf 85 22 10 3d ce 24 00 3f 62 ba 21 3f
       -1.460394 0.03518917 0.5005616 0.6317502
0000a0 95 e5 e6 be ef 11 da be e2 fd 40 3e 69 b9 44 3e
       -0.45097032 -0.42591807 0.18846849 0.19211353
0000b0 a8 a5 9c bd 58 f2 49 bf b4 89 8a bf 61 87 18 bf
       -0.07648784 -0.7888541 -1.0823274 -0.5958157
0000c0 4d 8b f6 3e b4 39 16 c0 0a 30 c8 3e 2d 8c a0 bf
       0.48153153 -2.347272 0.3909915 -1.2542778
0000d0 ee 74 b1 3d 25 ff d2 3e bf de 89 3f 22 fb 87 3f
       0.08664881 0.41210285 1.0771102 1.0623515
0000e0 f3 db 5b bf cf dd b1 3d 84 49 2b be db 4e 24 3d
       -0.8588249 0.08684885 -0.16727263 0.040114265
0000f0 27 07 ed 3f fa 34 a2 bf 05 fe f9 3e 3e 47 36 3f
       1.8517808 -1.2672417 0.48826614 0.71202457
000100 09 23 d7 be 94 1d 96 bf fe 87 2c c0 db e6 c9 bf
       -0.42018917 -1.1727777 -2.6958003 -1.5773576
000110 61 1c a3 3f fa 40 0b c0 87 d3 74 3f 38 4e af bf
       1.2743036 -2.1758409 0.95635265 -1.3695745
000120 3c 5d 23 3e a2 fd 8d bf 71 f4 f0 3f 11 a4 30 bd
       0.15953535 -1.1093028 1.8824598 -0.043125216
000130 9b 9b 0e c0 2a 49 85 3f 09 ce 1f 40 ba ba 69 bf
       -2.2282474 1.0412953 2.4969504 -0.9130055
000140 b6 97 29 40 59 96 b7 3c 1e fc a9 3f 60 78 42 be
       2.6498847 0.022410559 1.3280065 -0.18991232
000150 1c c4 b2 3f f7 db 5c bf f2 31 ba bf 91 87 c1 bf
       1.3966098 -0.8627314 -1.4546492 -1.5119497
000160 97 b5 c0 3f 8e ca 79 bf 58 4a c9 3f 21 56 21 bf
       1.5055417 -0.975747 1.5725813 -0.6302205
000170 17 e8 7c be 62 fc b4 bf cb 7b 82 3f 47 9b 26 be
       -0.2469791 -1.4139521 1.0194029 -0.16270171
000180 16 fd 32 c0 7d 46 92 3f cb 7b 7b be 59 45 ef bf
       -2.7966971 1.1427761 -0.24558942 -1.8693038
000190 7f f4 e5 3f 6d 0d 06 bf 24 91 2c bf 90 32 c8 3f
       1.7965239 -0.52364236 -0.67408967 1.564043
0001a0 21 43 65 3f 55 05 31 c0 74 70 ea 3b 5f 30 81 bf
       0.89555556 -2.7659504 0.0071545187 -1.0092887
0001b0 71 5b 24 bf 00 ff 48 c0 ad c2 70 bf 18 6b 5b be
       -0.6420203 -3.140564 -0.9404705 -0.21427572
0001c0 d7 d7 87 bd 7e 0f 0c 3f 47 8e 19 3f 08 b8 e9 3f
       -0.06632965 0.5471114 0.59982723 1.8259287
0001d0 b2 a2 07 c0 18 f8 b0 be e6 f1 fe bf 14 0d 56 bf
       -2.1193051 -0.3456428 -1.9917572 -0.83613706
0001e0 8b 78 0c 40 8a bb ec be 3f 2f 09 40 66 ec 48 c0
       2.1948574 -0.4623683 2.1435087 -3.1394286
0001f0 9c 40 ce 3f f8 d8 3d 3f d7 7b 08 bd 09 85 13 c0
       1.6113467 0.74159193 -0.033321228 -2.3049948
000200 35 25 04 be db f3 12 bf 6a 39 67 3f ec 3f 95 be
       -0.12904818 -0.57403344 0.9032198 -0.2915033
000210 1e 5f 46 3e de 4e b7 bf b8 75 e2 3f 88 4d f8 3f
       0.19372222 -1.4320943 1.7692175 1.9398661
000220 fa 1b fc 3e c2 03 24 c0 24 90 69 3f 57 28 9b bf
       0.49240094 -2.5627294 0.91235566 -1.2121686
000230 37 5e ff 3f db b3 0d 3f c3 a7 1b 40 62 ab fc 3e
       1.9950627 0.5535256 2.4321144 0.49349505
000240 8d 5f 27 3f 72 05 a6 bf 4f 1e 68 c0 4f bf ae bf
       0.65380174 -1.2970412 -3.62685 -1.3652133
000250 d2 25 ab 3c 62 33 e7 bf 35 a6 c1 3e 38 fc 0e c0
       0.020892058 -1.8062556 0.37822118 -2.2341442
000260 9d c5 92 bf 85 15 15 c0 15 49 5d 3f 97 68 66 3e
       -1.1466557 -2.3294384 0.8643964 0.22500835
000270 36 13 87 bf 35 bb 17 3e 61 93 a8 3f 5c 24 4d bf
       -1.0552738 0.14817508 1.3169976 -0.80133605
000280 9f ae f6 be 1b 7a be bf 54 ad 5f 3f 10 55 9e bf
       -0.481801 -1.4881014 0.8737385 -1.2369709
000290 15 c8 94 3f 93 4f 7d bf 6b 52 3d bf 3f 1e a1 3f
       1.162356 -0.98949546 -0.73953885 1.2587355
0002a0 98 a2 1a 3f 29 e2 0f bf bf e3 f1 3f 20 f3 4e c0
       0.6040435 -0.5620447 1.8897628 -3.2335892
0002b0 2a f1 18 3f 3c 57 b9 be 49 0d d0 3f 9f 19 de 3f
       0.5974299 -0.36199367 1.6254054 1.7351569
0002c0 4c 5e 99 be f0 a7 d8 bf ec e2 62 3f 3e 66 d2 bf
       -0.29954755 -1.692625 0.88627505 -1.6437452
0002d0 55 4a 7e 40 fd d3 31 3f 20 79 b5 bf 60 64 ee ba
       3.9732869 0.69464093 -1.417759 -0.0018187873
0002e0 f2 0b a7 3f 36 d3 48 c0 f1 7d 28 c0 2f a3 10 3e
       1.305052 -3.1378913 -2.6326869 0.1412475
0002f0 8a a0 6b bf b7 1b ff bf 31 cc 22 be 57 26 0c 3f
       -0.9204184 -1.9930333 -0.15898205 0.54746
000300 a0 01 3a bf 0a fe da 3e 02 4a cc be 35 eb 0a 40
       -0.7265873 0.4277194 -0.39900213 2.170606
000310 83 9a 4b bf 7a 93 8e bf e1 24 96 bf d2 1b ca be
       -0.7953264 -1.1138756 -1.1730005 -0.3947435
000320 f9 39 ce 3f 64 c1 40 bf 3f 51 29 be 65 5c fc 3e
       1.6111442 -0.7529509 -0.16534899 0.4928924
000330 05 c1 53 bf 40 2f 82 c0 8f ff 90 be db be 3b 3c
       -0.827164 -4.068268 -0.28319976 0.011459078
000340 8d e3 c6 3e a0 a7 d2 be 1a 74 4c 40 c4 c1 09 c0
       0.38845482 -0.41143513 3.1945863 -2.1524515
000350 ac 45 e1 be e7 97 1f 3f cd 67 50 40 5d a8 d3 3f
       -0.43998468 0.6234116 3.2563355 1.6535755
000360 0d 12 13 be 1e 62 c8 bf 3b a8 1b bf 64 20 fe bf
       -0.14362355 -1.5654943 -0.60803574 -1.9853635
000370 74 91 64 3e c9 5d 84 be dd 82 fe 3f 30 6e 03 40
       0.22321111 -0.25852802 1.9883686 2.0536003
000380 70 f9 e0 be 9c c4 55 c0 e5 59 d5 bf a9 2b 1a 3f
       -0.43940306 -3.340125 -1.6668059 0.6022287
000390 03 0c 07 be bf 44 42 bf 15 ec 03 40 8d 0a a9 bc
       -0.13188176 -0.7588615 2.0612843 -0.020634914
0003a0 e3 20 7e bf 13 84 c6 be b9 2c 89 40 e9 da 48 40
       -0.9926893 -0.3877264 4.2867093 3.1383612
0003b0 d2 2a 4b 3f 0b 9b 8a bf c4 26 e5 3f 3d ee 42 3f
       0.79362214 -1.0828565 1.7902455 0.7614477
0003c0 80 50 16 3f c8 a2 79 3f 0c fa 9c 3e 48 83 90 3f
       0.58716583 0.9751401 0.3065952 1.1290064
0003d0 7c 52 03 40 0b a2 59 3f cd 65 dc 3f ef c2 15 bf
       2.0519094 0.8501288 1.7218567 -0.5850057
0003e0 f8 45 86 bd 9d d2 bf bf d2 5f 4c bf 0a 9b 0a 3f
       -0.06556314 -1.4986149 -0.7983371 0.5414282
0003f0 7d de cc bd a9 81 1b bf 44 a4 84 be b4 56 9c 3f
       -0.10003374 -0.6074472 -0.25906575 1.221396

weight f4 [120, 180]
000000 e1 36 36 3f c8 39 43 bf cd 16 ae bf 96 f7 d5 3c
       0.7117749 -0.7626004 -1.3600708 0.026119035
000010 3a b8 b6 bf 33 2e 26 bf fa f6 97 3f 6f 9c ba 3f
       -1.4274971 -0.64914244 1.1872246 1.457899
000020 51 37 a2 3f e5 61 e3 3f ec b7 e3 be 64 ae 79 3f
       1.2673131 1.776425 -0.4447626 0.97531724
000030 4d f5 b9 3f 74 f4 8f 3e 97 5f 92 bf d3 99 85 bb
       1.4527985 0.2811619 -1.1435422 -0.004077175
000040 cb 38 31 3f 56 88 43 bf e9 45 9c 3f 91 1d 61 3e
       0.69227284 -0.7637991 1.2208835 0.21983935
000050 34 5a 0c bf 1c c1 9f 3c 31 20 e3 be 33 c3 a3 bf
       -0.5482514 0.019501261 -0.44360498 -1.2793945
000060 ab 71 63 bf 45 b6 14 bf de 09 b8 3f f3 36 3b bf
       -0.8884532 -0.5809062 1.4378011 -0.7313072
000070 18 e3 01 3f 77 41 cc 3f 56 ba 88 be 62 04 ee 3d
       0.5073714 1.5957478 -0.26704663 0.1162193
000080 75 92 c6 3e 88 40 e7 3d 2c 7e 4b 3f aa e8 33 bf
       0.38783613 0.11291605 0.794894 -0.7027689
000090 f8 27 fa 3f cf c4 21 3f 86 5b 4a bf 74 29 88 3f
       1.9543447 0.6319093 -0.79045904 1.063765
0000a0 98 ee 14 c0 41 85 7d be a9 ea b1 3e 3c 00 b0 3f
       -2.3270626 -0.24757864 0.34749344 1.3750072
0000b0 29 5b 47 bf e1 76 23 3f bf f3 8f 3f 80 25 d6 3f
       -0.77873474 0.6385327 1.124626 1.6730194
0000c0 e6 eb 01 bf d0 75 30 3f c2 bc fb be 52 e8 c3 be
       -0.5075058 0.6892977 -0.49167448 -0.38263184
0000d0 31 bd e4 3f 27 b4 b2 3f ff 5d 0f c0 4d 24 17 3e
       1.7870237 1.3961228 -2.240112 0.14759941
0000e0 5a 3d 9a 3e 4d 5f ed 3e 1d 74 f0 bd d1 b0 35 3f
       0.30124933 0.4636177 -0.11740897 0.70972925
0000f0 d7 6d 61 3d d0 67 69 3f a8 fa 85 3e 58 e7 bc 3e
       0.055036392 0.9117403 0.26167798 0.3689525
000100 15 6d f2 3e da c2 7b 3f 71 69 80 bf fd 1a 7f 3f
       0.47348848 0.98344195 -1.0032178 0.99650556
000110 67 73 68 3e ef cc 0f bf 4b 6c 8c 3d d8 c7 f8 3f
       0.22700273 -0.5617208 0.06856593 1.9435987
000120 30 73 84 3f 0d 6e d7 3f c7 3c b6 bf c9 60 f2 3e
       1.0347652 1.683046 -1.4237298 0.47339466
000130 aa 90 6b bf df 8c 0f bf 79 92 bf be 45 01 b8 be
       -0.92017615 -0.5607433 -0.37416437 -0.3593847
000140 7f 1d 0e 3d 5d f1 9c 3e b0 c4 2f bf 55 b0 af be
       0.0346961 0.30652896 -0.68659496 -0.34314218
000150 0a 67 c3 bd 48 aa 4b 3e 6c 28 72 3f d7 8c 64 3f
       -0.095411375 0.19889176 0.9459293 0.89277405
000160 f9 bb c5 bf 54 49 a8 3f 98 bb 8c bf a8 38 c3 bd
       -1.544799 1.3147378 -1.0994749 -0.09532291
000170 dd 91 e6 3d 34 19 96 be a8 6a 38 bf 0c 86 72 3c
       0.1125829 -0.29316103 -0.72037745 0.014802467
000180 a4 c5 b6 3f 29 0c 7c 3e af 40 98 3f 13 77 3b 3f
       1.4279065 0.24614014 1.189474 0.7322857
000190 9c 9e 96 bf 87 6e 95 3f 73 eb 4f bf 57 c7 4e bf
       -1.1767154 1.1674355 -0.8121864 -0.8077292
0001a0 1e f8 40 bf d2 9b b5 bf 72 34 ea 3e 13 f4 b0 3f
       -0.75378597 -1.4188178 0.45743138 1.3824486
0001b0 0d ad f2 bc 4c e4 45 3f c6 62 be 3e 39 4c 89 3e
       -0.029623533 0.7730148 0.37184733 0.26815966
0001c0 60 b7 c9 bd 8f 51 0c 40 2d a8 b5 bf ae 8a 98 3e
       -0.09849429 2.192478 -1.4191948 0.29793304
0001d0 09 89 96 3c 5c ed ac 3e 31 f0 6f be 97 9a 64 3e
       0.01837589 0.3377484 -0.2343147 0.22324596
0001e0 a9 f4 13 c0 4a fa b5 3f 53 c6 1b 3e 75 a0 02 3f
       -2.3118079 1.4217007 0.15212373 0.5102609
0001f0 9c ad ac bf bf 5e a0 3d d4 44 08 3f 85 08 aa 3f
       -1.3490481 0.078305714 0.53230023 1.328385
000200 5e c8 97 bf 70 a2 ee 3f ea ea 2a 3f bf 5f f1 3e
       -1.1858022 1.8643322 0.667647 0.4714336
000210 c3 cb 7c 3f 90 ac 6c 3f 6f 8e e4 be c5 0d b6 3e
       0.98748416 0.9245081 -0.44639918 0.3555738
000220 78 6b 9a 3f c4 c7 32 3f 85 6f 60 3f 41 8d d6 3f
       1.2064047 0.6983607 0.87670165 1.6761857
000230 f6 19 84 bf b4 bc 2d 3f c1 9d 38 3e 23 6d 2f 3f
       -1.0320423 0.67866063 0.18028928 0.68525904
000240 56 06 2d bf 95 41 c7 3d 0c 8b 38 be d0 eb 6c 3f
       -0.6758779 0.09729306 -0.18021792 0.9254732
000250 8e 2d 70 3d 89 6c 90 3f b8 d1 c4 be b0 dc 02 40
       0.058637194 1.1283122 -0.38441253 2.0447197
000260 35 40 88 3f c3 cb 59 3f 4a 06 39 3f a1 c6 b6 bd
       1.0644594 0.8507654 0.7227522 -0.08924604
000270 1c b2 eb 3e be e3 ea be 6a e7 b8 3e 42 2a f1 3e
       0.46034324 -0.45876878 0.36114055 0.47102553
000280 46 87 02 c0 6d 7d 26 3f 42 d6 03 3f 66 0c 37 bf
       -2.0395064 0.65035135 0.51498806 -0.71503294
000290 42 57 48 bf 1e fc 2b 40 f3 65 a0 bc 4c a8 65 3f
       -0.78258145 2.687263 -0.019579863 0.89709926
0002a0 34 b6 05 bf c2 f2 9d 3f 10 06 1b 3f eb 04 e8 3f
       -0.52231145 1.2339709 0.60556126 1.8126501
0002b0 fa 5b 3a 3f 2c 00 86 3f 0c 22 4c 3e c5 52 20 3e
       0.72796595 1.0468802 0.19934863 0.15656574
0002c0 69 cc 31 3f 72 4d b2 be 99 4a 2f 3f 9d e4 60 be
       0.6945253 -0.3482471 0.684732 -0.21962209
0002d0 93 b6 d8 bf 3d 62 3d bf e3 e1 ee bf 50 ae b0 3e
       -1.6930717 -0.73978025 -1.8662685 0.3450799
0002e0 9f f3 ee 3f 3f fb f0 bf 18 f4 46 3e 0b 01 91 3f
       1.8668097 -1.8826674 0.19429052 1.1328443
0002f0 1e 34 a0 3e 29 bf f6 3f b1 77 bb 3e b6 f5 68 bc
       0.31289762 1.9277087 0.36614755 -0.014218738
000300 45 2f 3b 3e 84 48 ec be 1e d0 e8 bf 76 81 c7 3d
       0.1827975 -0.46149075 -1.8188512 0.097414896
000310 bd 0f 47 3f 13 4e 9d 3f 21 48 c7 3f 64 bd 77 3f
       0.7775839 1.2289451 1.5568887 0.9677336
000320 ce f7 3c bf 2a d1 eb 3e 28 bf 99 bf b2 f2 33 3f
       -0.7381562 0.46058017 -1.2011461 0.702922
000330 69 88 ab bf 23 f6 0c 3e 5a 46 94 3e f1 47 27 bd
       -1.3401004 0.13765769 0.28959924 -0.040840093
000340 a0 72 ae bf c4 10 0a 3f b2 b0 91 bf 2a 5f cd 3f
       -1.3628731 0.5393183 -1.1382048 1.6044667
000350 7d 39 fb bf 2d ca ae 3e 2c 14 fe be 0d 94 62 bf
       -1.9626919 0.34138623 -0.49624765 -0.8850716
000360 34 24 8a 3e aa c3 48 bf eb ee 09 3f fb 5e 84 be
       0.26980746 -0.7842356 0.53880185 -0.25853714
000370 d9 78 ba be c2 87 24 bf d1 44 fc 3e 93 67 7c be
       -0.36420324 -0.6426965 0.49271253 -0.24648885
000380 86 c9 80 bd 26 e1 b9 bf 18 ad 6e bf 6f ef e2 3f
       -0.062884375 -1.4521835 -0.9323287 1.7729319
000390 59 96 4f bf 28 6f 5b 3f 6e af 1d bf 1d ec 15 40
       -0.8108879 0.85716486 -0.6159581 2.3425362
0003a0 bb fc 31 bf 20 b3 47 3f b7 0d 44 bf 66 f5 5d bf
       -0.6952626 0.780077 -0.7658343 -0.86702573
0003b0 f1 f4 fe 3f 6b 10 b5 be 2a a7 7b bf e2 98 1a 3f
       1.99185 -0.35364088 -0.9830195 0.6038953
0003c0 10 94 80 c0 41 46 59 bf fa db 8c be c7 7f c7 3f
       -4.018074 -0.84872824 -0.2751158 1.558587
0003d0 05 58 df 3d 70 05 3d c0 a5 e1 94 be 49 7a 1a 40
       0.1090546 -2.9534569 -0.29078403 2.4137137
0003e0 96 45 53 bf 42 6c 89 be 68 ef a4 3f 3f 4b 1b 3d
       -0.82528055 -0.26840407 1.2885561 0.037913557
0003f0 0a 35 bf bf 1e 44 1d 40 ef a3 8e 3f 14 1d 83 bf
       -1.4938061 2.4572825 1.1143779 -1.0243249

bias f4 [120]
000000 dd 44 04 c0 ec ac eb bf 3c bb 67 c0 2e 9e 0b c0
       -2.066703 -1.8412147 -3.6208029 -2.1815295
000010 b6 97 32 c0 7c 68 09 c0 0e 53 1f c0 95 9f 0b c0
       -2.7905097 -2.1470022 -2.4894443 -2.181615
000020 c9 4b 12 c0 6b 23 b7 bf 34 7d f5 bf 68 bd b6 bf
       -2.2858756 -1.4307684 -1.9178834 -1.4276552
000030 76 52 b4 bf 73 3d d8 bf b5 c7 1e c0 c6 6f 2e c0
       -1.4087665 -1.6893753 -2.4809391 -2.725572
000040 87 1d 45 c0 83 b0 03 c0 d1 7b bd bf e4 70 de bf
       -3.0799272 -2.0576484 -1.4803411 -1.7378201
000050 00 82 3e c0 eb b5 2b c0 65 31 bd bf 88 15 2f c0
       -2.9766846 -2.6829784 -1.4780699 -2.7356892
000060 81 a7 02 c0 26 c2 27 c0 1e e9 0b c0 42 34 3c c0
       -2.0414736 -2.6212249 -2.1861033 -2.9406896
000070 4a 77 1c c0 dd e1 08 c0 7e 60 21 c0 09 ff 2b c0
       -2.4447808 -2.1387856 -2.5215144 -2.687441
000080 6e ef b3 bf b0 a6 d9 bf 7f 2d c3 bf c6 ee d4 bf
       -1.4057443 -1.7003994 -1.5248259 -1.6635368
000090 46 f1 d8 bf c1 53 04 c0 bf 09 10 c0 cb 73 17 c0
       -1.6948631 -2.067612 -2.2505949 -2.3664424
0000a0 56 8b ea bf fd 87 aa bf 5c 38 e3 bf 50 3d c9 bf
       -1.8323772 -1.332275 -1.7751575 -1.5721836
0000b0 ef af be bf b0 c1 fd bf e1 eb 03 c0 64 38 ea bf
       -1.4897441 -1.9824734 -2.061272 -1.8298459
0000c0 41 3d 1f c0 ac 66 d8 bf b4 27 a3 bf ff 4d ea bf
       -2.4881136 -1.6906333 -1.2746491 -1.8305053
0000d0 0d a9 1b c0 b6 32 08 c0 a5 e2 02 c0 10 de 0b c0
       -2.432193 -2.1280951 -2.0450833 -2.1854286
0000e0 ab ec 14 c0 83 f8 ce bf f7 a6 ed bf e2 b9 9e bf
       -2.326945 -1.616959 -1.8566579 -1.2400477
0000f0 07 11 ed bf 0c b4 e9 bf 6e 03 fe bf 6b 82 16 c0
       -1.8520821 -1.8258071 -1.9844797 -2.35171
000100 25 04 bb bf c6 88 df bf a9 7c 66 c0 68 4b a8 bf
       -1.461064 -1.7463615 -3.6013587 -1.3148012
000110 57 b1 2d c0 67 64 0d c0 d7 92 30 c0 97 59 d4 bf
       -2.713949 -2.209253 -2.7589624 -1.6589841
000120 92 44 0e c0 d9 2d d2 bf 78 ff 86 bf 34 43 cb bf
       -2.2229352 -1.6420242 -1.0546713 -1.5879884
000130 fa 0e f7 bf d5 86 0d c0 49 f7 1f c0 51 50 4a c0
       -1.9301445 -2.2113545 -2.499468 -3.1611521
000140 f0 c5 ed bf 27 ea db bf dc 98 e7 bf f0 07 44 c0
       -1.8576031 -1.7180833 -1.8093524 -3.0629845
000150 ad 90 d8 bf d7 55 2c c0 c1 6e 20 c0 9c 78 18 c0
       -1.6919152 -2.6927392 -2.50676 -2.3823614
000160 6f c6 a2 bf 25 67 03 c0 e9 e9 fb bf 71 37 23 c0
       -1.2716807 -2.0531704 -1.9680759 -2.5502589
000170 55 9b 09 c0 f8 cf 08 c0 7b 2b 58 c0 ff b9 52 c0
       -2.1501057 -2.1376934 -3.3776538 -3.2926023
000180 ec 03 f2 bf 14 36 98 bf f9 c9 e3 bf 78 21 12 c0
       -1.8907447 -1.1891503 -1.7796012 -2.2832928
000190 bd 1e 9a bf e1 7c 89 bf 99 c9 76 c0 31 01 39 c0
       -1.204063 -1.0741235 -3.8560545 -2.8906977
0001a0 6d 69 17 c0 eb 0b 2e c0 f7 74 c9 bf ef ca 00 c0
       -2.3658097 -2.7194774 -1.573882 -2.012386
0001b0 d3 01 e4 bf ee 01 a6 bf b2 b5 02 c0 cd 42 bd bf
       -1.7813057 -1.2969339 -2.0423398 -1.4786011
0001c0 12 f0 db bf f1 39 11 c0 2c 2f 33 c0 9a cd 13 c0
       -1.7182639 -2.2691615 -2.7997541 -2.309424
0001d0 69 2b fa bf a7 43 1d c0 8f 6f e4 bf d0 50 11 c0
       -1.9544498 -2.4572542 -1.7846545 -2.2705574

weight f4 [13, 120]
000000 19 ec ed be d0 7a 1b bf a6 26 a1 c0 55 5b 8c bf
       -0.4646919 -0.6073427 -5.035968 -1.0965372
000010 83 a9 05 c0 a2 ef 85 bd 6f 5a 3b 3e 3b 14 8b 3e
       -2.0884712 -0.06539847 0.18296216 0.27163872
000020 42 a3 ff be 84 24 6c be 76 02 d9 be 88 88 3f bc
       -0.49929243 -0.23060805 -0.4238469 -0.011690266
000030 93 29 ae be a9 70 af be 08 e1 da be 05 0d 97 bf
       -0.34016094 -0.3426564 -0.4274981 -1.1800848
000040 23 6d 11 3f 64 97 c8 3e 2d 52 60 bf 5a 7f 02 bf
       0.56807154 0.39178002 -0.8762539 -0.50975573
000050 e9 46 c0 bd fd 4e fd be 6b de 63 3e 05 ee 81 bf
       -0.09388525 -0.49474326 0.22252814 -1.0150763
000060 3b 3e e0 3e 48 ac 9f bf c5 67 99 3e 1a a9 3c bf
       0.43797478 -1.2474451 0.29961982 -0.7369553
000070 e0 af 6d bf a7 1a f0 bd 64 e5 81 be b4 5d 0c c0
       -0.9284649 -0.117238335 -0.25370324 -2.1932192
000080 b2 58 d4 3d 3d d4 5f be 5e 5b df bc 86 8d 74 be
       0.1036848 -0.21858306 -0.027265247 -0.23882112
000090 21 8f 46 bf e0 5a 48 be 87 9c eb 3b 81 4a d1 3e
       -0.7756215 -0.19565916 0.0071902904 0.40877154
0000a0 51 20 65 3e b5 6a 8c bf 53 a2 2d bf d3 b0 41 3e
       0.22375609 -1.0970064 -0.6782581 0.1891511
0000b0 5d 9b e8 3e 10 b9 35 3e 15 2a 71 bf d0 d4 0c bf
       0.45431033 0.17746377 -0.9420484 -0.55012226
0000c0 f3 5a 6b be b9 e5 b1 be 0a 96 bf 3e 21 d8 dd be
       -0.22983913 -0.34745577 0.37419158 -0.43328956
0000d0 d2 e9 3b bf 5c 25 ff bf 06 fe 5a be 4c 4e 95 bf
       -0.73403656 -1.9933276 -0.21385965 -1.1664519
0000e0 e7 a8 65 bf 9b 35 9d 3e ab de 9d be 9a f5 cb be
       -0.8971085 0.3070496 -0.30833945 -0.39835817
0000f0 42 7e 33 bf 3f da 69 bd 37 63 28 bf f3 2e 3b 3d
       -0.7011453 -0.0570929 -0.6577639 0.04569907
000100 05 ab 8f ba 61 d0 2e bf 0b cb b8 bf 46 0f 68 3e
       -0.0010961002 -0.6828671 -1.4436964 0.22662076
000110 f0 24 69 bd a4 ea a2 bf f5 d2 d0 bf 50 53 86 bc
       -0.056919992 -1.2727857 -1.6314379 -0.016397148
000120 91 c9 4e bc b8 7e 07 c0 15 35 06 be 8b f4 d6 bd
       -0.012621299 -2.1171093 -0.13106187 -0.104958616
000130 4d 76 4b 3e 46 7f 14 bd dc 1a 72 be 42 e6 8f bf
       0.19869347 -0.03625419 -0.23643059 -1.1242144
000140 da 46 68 be 15 ce 30 3d 15 51 9a bf 96 07 58 c0
       -0.22683278 0.043165285 -1.2055994 -3.375463
000150 9f df 00 3e 6e 1d b3 bf 8a 6b be bf bb 6a 0c 3d
       0.12585305 -1.3993356 -1.4876568 0.034281474
000160 de a8 6e bf ba 68 a7 be 4a 7d 08 bf 8a 71 c4 bf
       -0.9322642 -0.32697088 -0.53316176 -1.5347149
000170 b1 51 d7 be 95 be cc 3e cd 68 07 c0 1e d8 e4 bc
       -0.42054513 0.39989153 -2.1157715 -0.027935084
000180 38 84 6c bf 40 4b 97 bd 07 16 d7 be cb 69 b8 be
       -0.9238925 -0.073874 -0.42008993 -0.36018214
000190 be 99 df bc 23 e6 7f be f0 85 86 be 45 c2 55 bf
       -0.02729499 -0.24990134 -0.2627406 -0.83499557
0001a0 4e 13 b5 be 50 35 6d c0 13 48 ad be ac 48 4e 3e
       -0.3536629 -3.706379 -0.3384405 0.2014491
0001b0 ee 0b 8c bf 95 6e ba be 94 67 80 bf 24 94 b5 be
       -1.0941141 -0.36412492 -1.003161 -0.35464585
0001c0 31 1c b9 bd d7 6c 62 3e 67 68 7e bf eb 04 1a bf
       -0.0903858 0.22111832 -0.99378055 -0.60163754
0001d0 a0 3a 14 bf 09 61 b2 bf e9 bd 2e bf 1f 09 45 bf
       -0.57901955 -1.3935863 -0.6825853 -0.7696704
0001e0 62 29 b3 3e 74 a1 8f bf 2b 40 98 3d 6c 3b 91 bf
       0.3499251 -1.1221147 0.07434114 -1.1346259
0001f0 6d 4a 8c bf 17 6d b5 bd 0c eb 26 bf d9 2a 7a be
       -1.0960213 -0.08858698 -0.65202403 -0.24430408
000200 eb ca c5 be 40 6f 16 be 20 6e 72 bf 16 34 7b 3d
       -0.38631377 -0.14690876 -0.9469929 0.06132897
000210 5a 0b 95 be 29 85 e7 3d d0 e5 10 3e ec 2d 93 bf
       -0.29110223 0.11304695 0.14150167 -1.1498389
000220 7a 8b 99 bf 46 71 0d bf 76 ad 76 bf 75 0a 76 bf
       -1.199569 -0.55250967 -0.9635843 -0.96109706
000230 06 01 94 bf a8 01 62 3e ca 9e 7f bf 78 c3 d8 be
       -1.1562812 0.22070944 -0.9985167 -0.4233663
000240 22 54 8a bf a2 70 ff bf f4 92 a0 bd a6 d8 8b bf
       -1.0806925 -1.9956248 -0.07840529 -1.0925491
000250 13 01 be 3c bb ce c4 3e 4e 27 24 bf 3a 5b 7d bf
       0.023193872 0.38438973 -0.64122474 -0.98967326
000260 05 d6 12 3d d9 8d 27 bf 94 98 ff bd 74 b7 16 c0
       0.035848636 -0.6545082 -0.12480274 -2.354947
000270 46 a2 a4 be 8a f5 b1 3c 9c dd 7e bf b2 38 f9 bd
       -0.32155055 0.021723527 -0.995569 -0.12169017
000280 ef 7a 2c bc 3d 5c 3c 3f 0f 2a 63 3e 8e 28 26 3e
       -0.0105273565 0.73578244 0.22184013 0.16226408
000290 d3 05 8b c0 44 df 3c bf f8 8b 7d bf 74 1e ab be
       -4.344461 -0.73778176 -0.990417 -0.3342167
0002a0 a6 ef 5f 3d fd 06 6c be d7 44 d2 3d ac 9b 80 be
       0.054671906 -0.23049541 0.102670364 -0.25118768
0002b0 bf e7 89 bf ac 92 15 be 8a 27 5b be 88 84 27 c0
       -1.0773848 -0.14606732 -0.21401802 -2.617464
0002c0 99 0b a0 bf cc 0f 5f bf 36 fc 1a bf 5f 83 82 bc
       -1.2503539 -0.8713348 -0.60541093 -0.015931783
0002d0 d9 f3 a1 be 07 eb de be ce bd 73 bf e1 62 44 bf
       -0.31631353 -0.43538687 -0.95211494 -0.7671338
0002e0 10 e9 71 be 54 2f 3d bf 3f 9c 20 bc f8 2c 4c bd
       -0.23624063 -0.7390034 -0.009802877 -0.049847573
0002f0 02 de 2d be 5b e8 2e bf da 13 23 bf 53 17 35 3e
       -0.1697922 -0.68323296 -0.63702166 0.17684679
000300 a3 70 b3 be ce e8 91 bc 25 9e 50 be 9a c0 a8 3d
       -0.35046872 -0.017811205 -0.20372827 0.08239861
000310 a7 30 8c 3d f0 df 90 bd 84 c7 31 bf 65 41 00 c0
       0.06845217 -0.07073963 -0.6944506 -2.0039914
000320 03 0f 69 3b c1 b2 d6 3e d6 05 d5 be 88 66 95 3f
       0.0035561926 0.41933253 -0.41606015 1.1671915
000330 74 ca b2 bd a8 8a 66 bf 27 11 a1 be bd ad 3f bf
       -0.08730021 -0.9005532 -0.314584 -0.7487448
000340 2c 2e e4 be 98 08 1d be 41 2b 4f bf f8 0a 3b bf
       -0.44566476 -0.1533531 -0.80925375 -0.7306361
000350 a7 c6 64 3d ce df 25 bf 25 52 1b c0 10 77 04 3f
       0.055853512 -0.64794624 -2.4268887 0.51744175
000360 1d e0 fd be fd 48 ae 3c 26 72 99 be ce b5 3d bf
       -0.49585047 0.021275038 -0.299699 -0.74105537
000370 c8 62 dc 3c 18 38 06 be 87 53 19 bf 01 44 22 be
       0.026902571 -0.13107336 -0.5989308 -0.15846254
000380 a0 1e 13 bf 73 ea 09 3f ef e0 4f bd b0 fc 5e be
       -0.57468605 0.53873366 -0.050751623 -0.2177608
000390 28 a3 9e bf 9a 2b 9c bd 7f 2f 15 3e 5a 69 44 bf
       -1.2393541 -0.07625504 0.145689 -0.76723254
0003a0 df 10 42 be 87 07 54 bd 19 11 b4 bf 3b cc 43 be
       -0.18951748 -0.05176499 -1.4067718 -0.19120876
0003b0 1d ea 2a bf 24 a2 8b bf ee 32 30 bf 0c 41 f2 bf
       -0.6676348 -1.0908856 -0.6882771 -1.8926101
0003c0 2a 2e c0 be bf e7 7f bf 42 70 9f c0 94 8b 2b bf
       -0.3753522 -0.9996299 -4.9824533 -0.67009854
0003d0 f4 ab ab bf fd f4 a6 bf d5 75 42 3e 69 9b 0c bf
       -1.3411851 -1.3043514 0.18990262 -0.5492464
0003e0 27 2c af 3e b2 01 6b bd 07 f2 cb be ca 69 6f 3e
       0.34213373 -0.057374664 -0.3983309 0.23380199
0003f0 d5 18 47 3e ec 7d 6e bf c1 b0 d6 be 39 65 02 be
       0.19443066 -0.9316089 -0.41931728 -0.12733926

bias f4 [13]
000000 a9 0b 49 3f 4e ce 01 3e 9f dc 85 ba 9b d2 0f c0
       0.78533417 0.12676355 -0.0010212845 -2.2472293
000010 ba 4a 95 c0 e5 b7 9f bf f4 5c 24 c0 c6 5d a5 3e
       -4.665372 -1.2477995 -2.5681734 0.32298106
000020 cb 4b 83 bf 9c b6 92 bf ee 53 15 bf 6e 71 ab 3e
       -1.0257505 -1.1461978 -0.5833119 0.33484977
000030 ab d3 92 3f
       1.1470846
